bert_models/BertForMaskedLM/pytorch_model.bin (torch, 388756 bytes, 92 tensors)

bert.embeddings.word_embeddings.weight f4 [1124, 32]
00000000: 0000 0000 0000 0000 0000 0000 0000 0000
00000010: 0000 0000 0000 0000 0000 0000 0000 0000
00000020: 0000 0000 0000 0000 0000 0000 0000 0000
00000030: 0000 0000 0000 0000 0000 0000 0000 0000
00000040: 0000 0000 0000 0000 0000 0000 0000 0000
00000050: 0000 0000 0000 0000 0000 0000 0000 0000
00000060: 0000 0000 0000 0000 0000 0000 0000 0000
00000070: 0000 0000 0000 0000 0000 0000 0000 0000
00000080: d83c b6ba ef38 75bc 18f1 6f3a 727b 463c
00000090: 56a0 9abc b564 f7bc 0757 f53c 6e3c 2cbb
000000a0: aa7f db3c f6b0 21bc 2b2d fdbb 0e83 be3c
000000b0: 5ea2 dabc 082b 9bbc 1d95 21bd a194 8abc
000000c0: e311 a0bc a1da 0f3d a51b ebbb 7656 073d
000000d0: 7252 0bbc 4cf9 e839 94db 9d3b 97e1 933c
000000e0: 5088 483b 44e8 01bd e661 35bb 29b6 9e3b
000000f0: efde 37bc c201 643c 8b99 68bc a509 72bd
00000100: e0db 303c 00e4 62bc 6628 b73c 18bc 11bd
00000110: 0943 ef3c 14db 50bc a6fb 743c bb6f 313a
00000120: 211c 90ba 61b3 fc3c b82c afbc 95e7 423a
00000130: ad6a b53c 05e3 46ba 1c42 9dbc 7b45 ba3c
00000140: c9ed 5bba 6e3c 5c3c 62e6 6b3b 472b a03b
00000150: 42cf a73c 9f49 123c 80a3 d43c 160c 293b
00000160: d29e cbbb d37e ab3b 643d 183d 25d3 b93b
00000170: f2fe e2bc 4a18 943c cb6a c1bb 1f1d 0fbd
00000180: 360c 80bb 7e29 8ebb ebe8 043c fbd1 a43c
00000190: 6769 a4bc b2e1 063c 6da9 b13b bb7b 9cbc
000001a0: 88fd 1d3c 3ec6 1abc 5522 f2bc 1935 c0b9
000001b0: 4252 a1bc 57ea 873c 653c 24bc 3778 e6bc
000001c0: f966 803b 63e2 f0bb 42b2 d53b 21e0 c6bb
000001d0: 970f 393c d8e0 28bc b91a a83c b77f 9bbb
000001e0: 54a6 06bd 8037 8c3c 1e04 17bd 2e7c 88bc
000001f0: 9f30 013b 46a2 573c 1470 bdbc 7d25 27ba
00000200: 3670 29bc b205 e03c 5bcc c7bb 8b6d cc3b
00000210: b94c 95bb bfce 843c 6267 453c b87c b53c
00000220: 1e7f 2b3b 6116 423c 6482 9c3b 8ce1 57bc
00000230: 8da2 be3c ddd2 9abc c786 073c 3063 803c
00000240: 0a53 dbbc b232 b5bb 8f7b f1ba 2583 e7bb
00000250: 2949 66bc 1fb8 88bc 7444 80bb 3d23 d43c
00000260: 7333 68bb cd7f 21bd 6792 db3c 9921 843d
00000270: eac0 ecbb b2ce b0bb 9414 be3c ecbf 5b3a
00000280: 1024 163d 0959 f8b7 a2da 79bb 7954 79bc
00000290: fdda 52bc 1275 04bc 32c4 8f3c b3e6 953c
000002a0: be78 a33b 1700 c4bc b58a 95bc b77a 773b
000002b0: e251 643c 03d8 7a3c b395 37bb 21f4 a5bc
000002c0: 5d7e d8bb d60e 04b9 87dc b7ba 4644 faba
000002d0: f901 903a f65d b1bb aee5 f63b 3511 e13a
000002e0: 3baa b63c 813d e13b 86c8 cd3b a463 4d3c
000002f0: 17dc 263d e6e0 573c cf63 10bd 0292 39bc
00000300: 7788 1339 a6b6 44bd 8b7f e0bb c944 7fbc
00000310: b8d9 b63c 02b6 8b3c de6b bf3c bfca 9f3c
00000320: efe9 963c aed7 ee3b 5418 9fbc 029a 2e3b
00000330: 62f1 57bd 2b40 d03b c446 203d 11db 073d
00000340: 8eac abbc 1b78 e43b 1213 b6bc 69c1 53bb
00000350: 5b64 87bc 6ae4 95bc 2764 49bc 2104 453c
00000360: fb8d 183c dbe8 e9bb 2a50 813b 7965 0f3b
00000370: db11 243d 1edc 9d3c e38d 23bd 69bd c83c
00000380: 9093 a03c 9ce8 07bc 0db5 863b 1da0 40bd
00000390: 7e74 2b3c b0c7 56bc b602 12bb c26d 3439
000003a0: 54c6 ca3b fcb4 3d3d 8bd8 8b3c 2b72 c2bc
000003b0: 95ab 07bd 45e6 0bbc bcd3 9dbb affb 82bc
000003c0: d36c a53c 8c78 f03c 719a 1b3c a10e 543c
000003d0: cec8 393c 1998 c9bb 8c9d 1abd 12a1 68bc
000003e0: c235 d9bc 2d08 993b b0c0 be3c 7b9e b5bc
000003f0: b3b8 533d a75b 5e3c e418 243a c54e 1abb
0.0 0.0 0.0 0.0 0.0 0.0 0.0 0.0
0.0 0.0 0.0 0.0 0.0 0.0 0.0 0.0
0.0 0.0 0.0 0.0 0.0 0.0 0.0 0.0
0.0 0.0 0.0 0.0 0.0 0.0 0.0 0.0
-0.0013903631 -0.014967187 0.0009153052 0.012114393 -0.018875282 -0.030199388 0.029948724 -0.0026281136
0.026794273 -0.009868851 -0.0077263317 0.023255851 -0.02668875 -0.018941417 -0.039448846 -0.016916575
-0.019539779 0.03512061 -0.0071749263 0.03304144 -0.008503543 0.0004443623 0.0048174355 0.018051906
0.0030598827 -0.031715646 -0.002767676 0.0048434925 -0.011222585 0.013916435 -0.014196764 -0.05909123
0.01079461 -0.013848305 0.02235813 -0.03557977 0.02920677 -0.012747545 0.014952576 0.00067686633
-0.0010994711 0.030847253 -0.021383628 0.0007435021 0.022145594 -0.0007586929 -0.019196562 0.022738209
-0.000838962 0.013442142 0.0035995473 0.0048879716 0.02048457 0.008928685 0.02595687 0.0025794557
-0.006214001 0.0052336245 0.03716792 0.0056709223 -0.027709458 0.018077988 -0.0059026233 -0.03493988
-0.0039077057 -0.0043384423 0.008112173 0.020119658 -0.020069791 0.008232521 0.0054218085 -0.019101968
0.009642966 -0.009446679 -0.029557386 -0.00036660655 -0.019692544 0.016591234 -0.010024165 -0.028133495
0.0039185253 -0.007351206 0.006521494 -0.0060691987 0.011295221 -0.010307513 0.020520555 -0.0047454494
-0.032873467 0.017116308 -0.03686916 -0.016660776 0.0019712818 0.013161248 -0.023124732 -0.00063761306
-0.010341695 0.027346466 -0.006097359 0.0062386445 -0.004556265 0.016211865 0.012048574 0.022154197
0.0026168297 0.011846156 0.004776286 -0.013176333 0.02327087 -0.018899376 0.0082718795 0.015672296
-0.026772995 -0.005529725 -0.0018423664 -0.007065194 -0.014055529 -0.016689358 -0.0039144102 0.02589571
-0.0035431057 -0.03942852 0.026803209 0.06451721 -0.0072251456 -0.0053957338 0.023203172 0.00083827856
0.036655486 -2.9605364e-05 -0.00381247 -0.015217894 -0.012869594 -0.008084552 0.017549608 0.018298483
0.004988759 -0.023925824 -0.018254617 0.0037762353 0.013935538 0.01531029 -0.0028012812 -0.020258011
-0.0066068606 -0.00012594028 -0.0014027514 -0.0019093833 0.0010986916 -0.0054128123 0.007534704 0.0017171266
0.02229797 0.006873787 0.006280008 0.012535963 0.040737238 0.013176179 -0.035251435 -0.011326315
0.0001406985 -0.04802575 -0.006851142 -0.0155803645 0.022320613 0.017054562 0.023366865 0.019505857
0.018422095 0.0072888946 -0.01942078 0.0026642089 -0.052720435 0.0063553057 0.039129987 0.033167902
-0.020956304 0.0069723255 -0.02222589 -0.0032311326 -0.016527345 -0.018297393 -0.012291945 0.01202491
0.0093111945 -0.0071383542 0.003946324 0.002188055 0.04005609 0.01927 -0.039930236 0.02450438
0.019601613 -0.0082952045 0.0041109384 -0.047027696 0.010464786 -0.013109133 -0.0022279448 0.00017207026
0.0061881933 0.04631518 0.01707103 -0.02373608 -0.033122618 -0.008538787 -0.0048165005 -0.015989153
0.020193493 0.029354356 0.009497271 0.012942941 0.0113393795 -0.0061521647 -0.037747905 -0.014198558
-0.026514892 0.004670164 0.02328524 -0.022170296 0.051689815 0.013571656 0.00062598125 -0.0023545485

bert.embeddings.position_embeddings.weight f4 [512, 32]
00000000: 5472 e73b fba0 7eba 7cf8 e23b ec65 7e3c
00000010: e281 e8bc bbda a63c 9849 36bc 67b9 d7bc
00000020: 10ac 853d e312 6d3b e963 debb 46be debb
00000030: f338 bbbc 76a6 153c c693 13bc 4371 1cbb
00000040: de5d efbb f4f9 033d cee7 363d 57b1 4fbd
00000050: 4b4e 80bc 8101 45ba 4c25 8bbc 7536 78bb
00000060: 7749 1aba c41c a0bc f41d 8fbc 0d1f 2d3c
00000070: d0a9 c3bb c55d 623b 0658 d3ba 095d fa3a
00000080: 74a6 b93b 95fb 40bc 130c df3c 892c 593c
00000090: d09d 95bc 9c79 59bb c32d efbc d4e2 0abc
000000a0: ec22 4ebc fb34 85ba 05de 363d cd91 80bc
000000b0: a1e0 a3bc 79d9 023b 9069 763c ddb0 943c
000000c0: d84e 26bd 6b44 20bc 7d59 b63c b61e 9c39
000000d0: 145b b0bb 549b 82bc bc9e 70bb 6baf e9bc
000000e0: b3ff b5bc bbe8 7c3b 7481 563c e2b1 acbc
000000f0: 73d5 50ba a07b 9a3c 2a27 91bc 4e87 3bbc
00000100: f4af 0cbc c277 3bbd 2ed3 85bc 17b2 e23c
00000110: 03a3 f3ba 6e43 d8bc a3f8 0a3c 8bb9 19bc
00000120: 1f15 14bb 9268 3ebc 803d b53a d938 f93c
00000130: 49de b13b 5b43 bbbc ebc2 9f3b 0d03 a0bc
00000140: 4247 64bd 95a8 6f3c 49db 93bc fefe 2dbd
00000150: 066e b4bc 8232 a8bb 33d0 c13c 4105 2bbc
00000160: bdad ef3c 9a5b 9f3b e58e 3a3c b622 953a
00000170: 1654 a9bc eb40 1b3b 0b12 8dbc 177c 213b
00000180: f9f7 933c be4c afbc b9a8 3abc d032 b33c
00000190: 81d8 5fbc 6b74 4e3d 2750 adbc 144e cbbb
000001a0: 9325 a0bb 4ba1 28bc afba 6abc 69c5 8d3c
000001b0: 2eb7 333b 0c82 673c 14ab 083c e7cd 74bc
000001c0: d71c fbbc 53cb 3cbc 9602 ab3c 99d7 21bc
000001d0: b450 4fbb f51c 00bb 1da7 883c cd54 bf3c
000001e0: 4e3d 9a3c 0fa5 27bc 4dcd 93bc 035f 6d3d
000001f0: 28ae a13b 2436 5abc 16b9 1bbb 8d9e 8dbc
00000200: 7070 05bd 4f73 eb3c 8224 0e3d 708f 3abc
00000210: f0b1 503c 4726 2bbc f3b7 ae3c fbb3 acbc
00000220: 26ea c6bc e697 2f3b 347e 743c d8be f3ba
00000230: 9f99 893c 493d febc 648a ccbc 600e ec3b
00000240: 3365 5f3c 72f3 0d3b 80c5 34bc e1d4 2c3c
00000250: 218b 15bd 8640 fdbc cf1a 7fbc 1c34 de3c
00000260: 6254 ce3c 881d 213b 426c 443c b820 8dbb
00000270: d489 613c 50ca 45bb 0969 9a3a 105d 583b
00000280: 93ab 433c f0e8 5eba 7771 453c ea77 6f3b
00000290: bd33 a3bb 977f e7ba 9021 bbbb f77c 1dbd
000002a0: 2ab5 cf3c 278f 77bb ee9a b0bb 928c d93c
000002b0: 60ce 8d3b 0ec7 d93c bb76 9dbb 7ab9 87bc
000002c0: 4a6c 33bb fad4 813b cfeb 823c 0bcc 5c3c
000002d0: 32c0 bcbc 82a9 edbc b0f8 a4ba e9d0 9ebb
000002e0: a49f a1bc 4ec0 2e3d 49f5 26bc 639f eebc
000002f0: b255 383c 98a2 45bc 1942 d1ba baa7 843b
00000300: 87a8 86bc 222b 043d 6b42 93bc 2232 183b
00000310: 7dbb 273c 016a 2b3c 4efd 513c f76e c93a
00000320: 22a2 25bc f4af 46bc 6fe8 473c 0527 31bd
00000330: 4501 d83b 1d1a 71bc 8e31 963c 05b6 793c
00000340: ea13 16bc 52fb 07bc 41df 293c e8f1 0a3b
00000350: a795 2d3c 0f3a f3bc 30fa d4bc 1861 863a
00000360: ff3f 92bc d0bb 3f3c e75c d1bc a4e8 8eba
00000370: 92f8 9f3c 2f40 12bb a33f 10bd 67f7 c4bc
00000380: fbc6 2e3d 405b 33bc abe1 fabb a434 05bc
00000390: deae ac3c e141 d63c 982c 94bc db84 e63c
000003a0: 6a01 793c 811b 1dbc b31f b9ba 61ed e63b
000003b0: e91e 5e3c 2fe5 703b f9fa a93c 985b b63c
000003c0: f9a7 53bc 1b4c 903b 128e 143b c12f b23c
000003d0: 3886 3abb 2eef b63b a7b2 7c3d 8961 ee3a
000003e0: cada d4bb 5041 303d 735c 39bc 0734 e63b
000003f0: 3bad ae3c 2d1d 9fbc 6118 d53b 6948 99bc
0.0070631895 -0.0009713319 0.0069265943 0.01552723 -0.028382245 0.02036797 -0.011125945 -0.026333524
0.06526959 0.0036174587 -0.0067868126 -0.0067975847 -0.022854304 0.009133926 -0.0090074 -0.002387122
-0.007304891 0.032220796 0.04465466 -0.050706234 -0.015662333 -0.0007515178 -0.016985558 -0.0037874256
-0.0005885581 -0.019544967 -0.017470337 0.010566485 -0.005971171 0.0034540754 -0.0016124255 0.0019101213
0.0056655947 -0.011778732 0.027227437 0.013255247 -0.018263727 -0.0033184057 -0.029196626 -0.008476932
-0.012581568 -0.0010162884 0.044645328 -0.015694523 -0.020004572 0.001996605 0.0150398165 0.018150741
-0.040602535 -0.009781937 0.022259468 0.0002977752 -0.005381951 -0.015943207 -0.0036715707 -0.028526029
-0.022216653 0.0038590867 0.0130923875 -0.021080915 -0.0007966377 0.018857777 -0.01771887 -0.011445833
-0.008586872 -0.045768507 -0.01633605 0.02767281 -0.001858801 -0.02639934 0.008482131 -0.009382616
-0.0022595597 -0.011621611 0.0013827533 0.030422615 0.00542811 -0.022859266 0.004875531 -0.019532705
-0.05573202 0.014627595 -0.0180489 -0.042479508 -0.02202512 -0.005132974 0.023658847 -0.010438264
0.02925765 0.0048632147 0.011386608 0.0011378143 -0.020669978 0.0023689817 -0.017220518 0.0024640614
0.018062579 -0.021398898 -0.011392766 0.021874815 -0.013662458 0.050403994 -0.021156384 -0.006204376
-0.0048872917 -0.0102923615 -0.014326735 0.017306047 0.0027422416 0.014130127 0.008341569 -0.014941669
-0.0306534 -0.011523086 0.020875257 -0.009878063 -0.0031633796 -0.001954851 0.016681248 0.023355866
0.01882806 -0.010232224 -0.018042231 0.05795194 0.004934091 -0.013318572 -0.0023761443 -0.017287517
-0.032577932 0.028741507 0.034702785 -0.011386737 0.012737736 -0.010446138 0.021327948 -0.021081915
-0.024281573 0.002679342 0.014922667 -0.0018596305 0.016796885 -0.031035082 -0.024968334 0.007203862
0.013634968 0.0021659997 -0.011033416 0.010548801 -0.036509637 -0.030914556 -0.0155703565 0.027124457
0.025186721 0.0024584252 0.011988701 -0.004306879 0.013765771 -0.0030180402 0.001178057 0.0033014454
0.011942762 -0.00085033383 0.012050978 0.003653998 -0.004980533 -0.0017661926 -0.005710788 -0.038449254
0.02535494 -0.0037774534 -0.005389563 0.026556287 0.0043275803 0.026584174 -0.0048054135 -0.016567934
-0.0027377778 0.0039621564 0.015981583 0.013476382 -0.023040865 -0.029011492 -0.0012586322 -0.0048466814
-0.019729443 0.042663865 -0.0101903165 -0.029128736 0.0112509 -0.012062691 -0.0015965133 0.004048315
-0.016437782 0.032267697 -0.017976006 0.002322324 0.010237572 0.010462285 0.01281674 0.0015368153
-0.010109456 -0.012126911 0.012201413 -0.043250103 0.006591948 -0.014715699 0.018334176 0.015241151
-0.009160021 -0.0082996655 0.010368169 0.0021201316 0.010594762 -0.02969077 -0.025998205 0.0010252325
-0.017852781 0.011702493 -0.025556995 -0.0010903073 0.019527707 -0.0022316088 -0.03521694 -0.024043752
0.04267023 -0.010947049 -0.0076562962 -0.008130226 0.021079477 0.02615446 -0.01808767 0.028139522
0.015198091 -0.009589077 -0.0014123827 0.0070473407 0.013557174 0.0036757698 0.020749556 0.022260472
-0.012918466 0.0044036037 0.0022667688 0.021751286 -0.0028461348 0.0055827117 0.061693814 0.0018187027
-0.0064958083 0.043031037 -0.0113135455 0.007025245 0.021322837 -0.019423092 0.0065031503 -0.018711286

bert.embeddings.token_type_embeddings.weight f4 [16, 32]
00000000: 6cca 59bd fc9e c9bc e5fc f0bb 234f a13c
00000010: 407c 19bc 54a0 883b a6c0 02bd 7864 2dbc
00000020: 7468 c2ba a6b3 123d 994c 0a3d c722 03bd
00000030: fba0 89bc c128 653d b56d 183d 1b09 963b
00000040: 1741 2ebb e8aa a33c dc47 2f3c f47c cbbb
00000050: c8dd 863b a54c 623c 6f21 ae3c c439 35bc
00000060: 509b d5bc e2de 1b3d a617 10bc a5e1 babc
00000070: b8c6 2c3c cfa0 5fbc 7e5b 94bc 449b 323c
00000080: 18ad 23bc 4ef8 273c 95c3 42bc 37ea b3bb
00000090: 0454 b83c e182 bcbc 2ec5 adbc 6098 213d
000000a0: 5413 083d 3243 623c df20 133c 1a51 073c
000000b0: 8960 64bb 993f fb3c 60da 813c 97e0 26bc
000000c0: 977e 79bd d227 393b 57e0 99bb 9b27 b7bb
000000d0: 5559 783c ab9a c5bb 003f a43b 4fe1 793b
000000e0: b95d 953c 745c 1bbb 4ea8 573c 5559 34bb
000000f0: c20a 043c 2f91 5abc af32 bcbc f802 063d
00000100: 03d0 efbc f26c 0b3d 0bda 053d 726e 843c
00000110: 53f5 0c3c 47e7 4e3b 0722 96ba 748b 103c
00000120: 4c46 70bc f0bd ab3b 5f94 1e3d c527 82ba
00000130: c6aa 1cbd dfe8 95bc 9980 a63b d443 9ebc
00000140: bffa 81bd 95b1 7d3c b8f0 a5bc a29b c93b
00000150: a907 87ba f9d8 abbb 1430 f93a 87c2 593c
00000160: 89e2 debb 2675 573c 919a a1bc 9edc 5abc
00000170: 2635 20ba 38b7 0a3b 500c d7bb 4faf 92bc
00000180: ebb3 38bc 7056 bb3c 6c98 f83c 2968 56bc
00000190: f21a 9eb9 281b 8cba 6a55 d33c 35c7 40bc
000001a0: d781 d239 970e 03bd a28e 82bc 90e2 c63c
000001b0: e682 34bc 6f21 c6bc 982b e93a cccc 73bc
000001c0: d0e1 023d 37a7 bf3c 152b c5bb cdd5 91ba
000001d0: 1ea8 72bc 5999 4fbd 38e4 d1bb 0ff4 04bd
000001e0: f94c 87bb a521 24bd fd33 f9bc 5da5 293d
000001f0: ce9a 953c b8e8 58bc d8dc 4bbc 577d 733c
00000200: bb6c c13c f98d 4e3c 9391 453c 27bf 5cbc
00000210: bb74 e53c a35b 033d e00f b0bb 1e1f 63bc
00000220: 245b 0fbd 0169 cdbb 2a67 803b 608a 20bd
00000230: c1c8 35ba 01e2 383c f73c e2bc 6ebe 013d
00000240: 8e8c d5ba 74e0 303d 4708 73bc 2cf4 5eb6
00000250: 31c3 0abc bbf9 88bc 06b8 ccbc 3837 5dbd
00000260: 4cb7 1fbc 0402 39bb 07ac 62bc dd22 c13b
00000270: 260b 68bc 0585 9abc ebf8 3fbc 0c43 e73b
00000280: 8551 bbbc fde3 bcbc 6fd8 8cba 3476 ee3c
00000290: d28b ee3c 74d7 7abc 2e71 d43c 821d 903c
000002a0: 42f5 0fbb a924 1e3c 7e48 55bc ab67 d43c
000002b0: 8593 c9ba 49e1 ffbc 9bae 4f3a 20a7 d73c
000002c0: 84d8 3d3d 576b b93c 0e6c 53bc 0927 813b
000002d0: 572a 1e3d af0b 8a3c fb99 813c a867 053d
000002e0: 66a2 0abc 6943 8c3b 008e 6739 1240 023c
000002f0: e582 33bb 2052 31bc d9dd 2bbc 9f69 0b3c
00000300: 3001 39bc d443 49bd 0537 4ebc f976 973c
00000310: 0001 d53a 5c90 05bc ce26 303d 4f85 c83b
00000320: b0df f83b ef20 6dbb 290a 4a3b aac9 eebb
00000330: 99b6 edbc d7ed 0bbd 2413 1abd abe5 71bc
00000340: a7e8 aebc e711 723c f108 0b3c 0255 d9bb
00000350: 8df6 9d3c 0f12 25bd 4471 81bc 33f8 23bc
00000360: 091b ea3b 98b6 b5bc 5e2e 383d ceec 293c
00000370: a79e 123d 4ad5 58bc e2c0 b23c 1bec 3b3d
00000380: 8a86 0ebd e505 bdbc 0674 0a3d 447b debc
00000390: dcac 9dbc 0b93 163b c76c f43b d0bb 663d
000003a0: adc3 2cbc 7fc2 803c 8ede f1bc 85e4 033c
000003b0: 1032 e5ba fd3a f93c 3e0b f73b 533c f939
000003c0: 3c11 c0bc 7df7 3a3b caed 183d f18a 01bb
000003d0: 39d8 953c 64b8 d1ba e392 783c 0f0b 8739
000003e0: a0cd 223b 37d7 4abc 8b84 063b b4c3 62bc
000003f0: ca83 0ebc d985 80bc 126d db3b c6a3 b23c
-0.05317156 -0.024611942 -0.007354366 0.019691056 -0.009368002 0.004169503 -0.031922005 -0.010583036
-0.0014832155 0.035815857 0.033764455 -0.032015588 -0.016800394 0.05594707 0.037214 0.004578722
-0.002658909 0.019978955 0.010698285 -0.006209964 0.004115794 0.013812219 0.021256177 -0.011061136
-0.026075035 0.038054354 -0.008794701 -0.022812674 0.010545425 -0.01364918 -0.018110033 0.010901276
-0.009989999 0.010252072 -0.011887451 -0.005490567 0.022501 -0.023011627 -0.021212187 0.039451957
0.033221558 0.013809966 0.008980005 0.008259082 -0.0034847578 0.030669974 0.0158512 -0.010185382
-0.06091174 0.0028252495 -0.004695933 -0.005589438 0.015158017 -0.0060304007 0.005012393 0.003812868
0.018233167 -0.002370623 0.013162686 -0.0027519066 0.0080592055 -0.0133402785 -0.022973387 0.032717675
-0.029273992 0.034039445 0.032678645 0.016165946 0.008603412 0.0031570958 -0.0011454233 0.008822311
-0.014665198 0.005241148 0.038715716 -0.0009930065 -0.0382488 -0.018299518 0.005081248 -0.019319452
-0.06346654 0.015484233 -0.020256385 0.006152586 -0.0010301966 -0.005244371 0.0019011521 0.013291008
-0.0068019074 0.013150489 -0.019727023 -0.013358263 -0.00061114354 0.0021166336 -0.006562747 -0.01790586
-0.011273365 0.022868365 0.030346118 -0.013086357 -0.00030156184 -0.0010689246 0.025797565 -0.011766245
0.0004015106 -0.031996336 -0.015937153 0.024277955 -0.011017537 -0.024185864 0.0017789481 -0.01488037
0.031953633 0.023395164 -0.0060170987 -0.001112634 -0.01481059 -0.050683353 -0.0064053796 -0.032459315
-0.004129049 -0.04007115 -0.030420298 0.04141747 0.018262293 -0.013239078 -0.01244279 0.014861426
0.023611417 0.012607091 0.012058633 -0.013473309 0.028009763 0.032069813 -0.005372986 -0.013862399
-0.034999028 -0.006268621 0.003918548 -0.039194465 -0.0006934517 0.011284352 -0.02761696 0.03167575
-0.0016292499 0.043182805 -0.014833516 -3.3222705e-06 -0.008469389 -0.016720643 -0.024990093 -0.05400774
-0.009748291 -0.0028229961 -0.01383496 0.0058940486 -0.014162814 -0.018862257 -0.0117170615 0.007057553
-0.02286602 -0.023057932 -0.0010745655 0.029109098 0.029119406 -0.015310157 0.025932875 0.017592195
-0.0021966253 0.009652295 -0.013017772 0.025928339 -0.0015379047 -0.031235354 0.00079224416 0.026324809
0.046349064 0.022634191 -0.01290418 0.003941421 0.038614597 0.016851274 0.015820494 0.032569557
-0.00846157 0.004280497 0.00022082776 0.007949846 -0.0027391252 -0.010822803 -0.010489904 0.008509069
-0.011291787 -0.04913695 -0.01258636 0.018489348 0.0016250908 -0.008152094 0.043005757 0.0061194072
0.007595025 -0.003618296 0.003082881 -0.007287224 -0.029017733 -0.03416237 -0.03761591 -0.01476423
-0.021351172 0.014774776 0.0084860185 -0.006632448 0.019282604 -0.040300425 -0.01580108 -0.010007906
0.007144336 -0.022181794 0.044966094 0.0103714 0.035795834 -0.013234446 0.02182049 0.045879465
-0.034796275 -0.0230741 0.033802055 -0.027158387 -0.019247465 0.0022975828 0.0074592563 0.056331456
-0.0105447 0.015717743 -0.029525068 0.008050089 -0.0017486233 0.030423636 0.007539182 0.00047537926
-0.023445718 0.0028528862 0.03733615 -0.0019766653 0.01829158 -0.0016000387 0.015171739 0.00025757446
0.00248418 -0.012380413 0.002052578 -0.013840605 -0.008698413 -0.015688824 0.006696352 0.021806609

bert.embeddings.LayerNorm.weight f4 [32]
00000000: 0000 803f 0000 803f 0000 803f 0000 803f
00000010: 0000 803f 0000 803f 0000 803f 0000 803f
00000020: 0000 803f 0000 803f 0000 803f 0000 803f
00000030: 0000 803f 0000 803f 0000 803f 0000 803f
00000040: 0000 803f 0000 803f 0000 803f 0000 803f
00000050: 0000 803f 0000 803f 0000 803f 0000 803f
00000060: 0000 803f 0000 803f 0000 803f 0000 803f
00000070: 0000 803f 0000 803f 0000 803f 0000 803f
1.0 1.0 1.0 1.0 1.0 1.0 1.0 1.0
1.0 1.0 1.0 1.0 1.0 1.0 1.0 1.0
1.0 1.0 1.0 1.0 1.0 1.0 1.0 1.0
1.0 1.0 1.0 1.0 1.0 1.0 1.0 1.0

bert.embeddings.LayerNorm.bias f4 [32]
00000000: 0000 0000 0000 0000 0000 0000 0000 0000
00000010: 0000 0000 0000 0000 0000 0000 0000 0000
00000020: 0000 0000 0000 0000 0000 0000 0000 0000
00000030: 0000 0000 0000 0000 0000 0000 0000 0000
00000040: 0000 0000 0000 0000 0000 0000 0000 0000
00000050: 0000 0000 0000 0000 0000 0000 0000 0000
00000060: 0000 0000 0000 0000 0000 0000 0000 0000
00000070: 0000 0000 0000 0000 0000 0000 0000 0000
0.0 0.0 0.0 0.0 0.0 0.0 0.0 0.0
0.0 0.0 0.0 0.0 0.0 0.0 0.0 0.0
0.0 0.0 0.0 0.0 0.0 0.0 0.0 0.0
0.0 0.0 0.0 0.0 0.0 0.0 0.0 0.0

bert.encoder.layer.0.attention.self.query.weight f4 [32, 32]
00000000: c5a3 4d3b 22f5 6a3b a6fa 21bc d390 f9bc
00000010: 86a9 42bc e28d 723b bf9d 093c bcb6 7a3c
00000020: bf72 11bc 9442 d13b 07d3 883b f9ea 933c
00000030: d78d 0d3d 58d5 c5bc c492 9c3c d9ee bfbc
00000040: 77d0 6f3c 2977 45bc b38c bcbc dd1a 12bc
00000050: b3b9 5cbc 1919 1c3a 7d57 ba3c c98d 71bc
00000060: 896b 50bc 8785 113d 4a21 bfbc f7ad 3dbd
00000070: 6e4d 08bd 8ccb f23b fcb8 853c bd67 3d3c
00000080: e934 9cbb d731 20bb cd61 31bc deb0 93bc
00000090: 694c e53c 78cb f43c 7437 91bc ed95 88bc
000000a0: 2499 883c 7eea 573c a594 c3bb 7048 84bc
000000b0: b925 803b 0109 d93c 9280 0f3c f40f a9bc
000000c0: 17f6 d1bb 3c93 e63c 76ac a9bc cfe1 72bc
000000d0: 4dfc 05bc ff52 9a3c 5014 023d 76cb 84bc
000000e0: 0ba3 f1bc abef 51bc e08e c0bb 5cfe debc
000000f0: 9ebb 50bc f081 ed3b 3eb9 3f3c c232 103c
00000100: 866a 173c 90bb 0f3c 5def 39bc 1595 fabb
00000110: 7bf7 903c 30ae ae3b 361c a33b 1fe7 8a3c
00000120: fb3c 4a3c 8635 643c 493c a8bb 14c6 97bc
00000130: e64c f8bb c1ed 59bc d6d6 063c a912 ee3c
00000140: 8b4a 7b3c abd0 f1bc 259c 29bb 9c07 4a3d
00000150: 89c9 643b 14de 02bd 7336 78bc 7d74 37bc
00000160: bd38 13bc ed9d 3f3a 8cba ebbc 46b1 283a
00000170: 3edc 98bc b864 2abc 6cb7 0abd 00a5 29bd
00000180: f374 6a39 7c0d f8bc 8bbd d4bb ca0f 79bb
00000190: 4a46 f0bc 59e0 22bc dbe7 80bc 0716 aebc
000001a0: ba5d 0a3b 0767 cbbb 77e2 b43c aabd e23c
000001b0: 27be 8a3c ddb5 2eba 9f57 0b3c ecef 78bb
000001c0: 46a5 e43c d3fb cf3c 3133 8f3c 0618 6abb
000001d0: d383 a43c d030 9ebc ca4c ddbc 24da 103c
000001e0: cd94 8e3c bc42 ef3c 7d52 053d ae09 2bbc
000001f0: 671a 813a 6a95 6c3b 2195 56bc bbd8 d53b
00000200: f537 213d cd8f 1eba 28d2 813b a1f1 773b
00000210: 9212 69bc 41d5 9dbc 0117 edbc 44ab 98bc
00000220: b80e 763c 696a 06bd a43c 2fbc e4fa 5d3d
00000230: 9475 b63b e2c1 8b3c b325 a9bc 70ea 6abb
00000240: 8703 5ebc 16af 83bc 71b2 233d 9cb4 703c
00000250: af49 4e3c 84a7 0fbd ad46 b93c 9ef3 6cbc
00000260: 6b03 0bbc 7df4 453c 398f 9bbc b447 d63c
00000270: ad4d 093d 16e4 16bd 53ce aebc a788 2b3d
00000280: 02e1 c4bc 9968 b43b e628 be3c 67f0 e13c
00000290: a6cb 873c f2cf 3e3b 7f27 02bc a515 863a
000002a0: 2033 ccbc 2c6c 9dbc 425b 21bd 7576 d73c
000002b0: b3c7 a5bc fb97 dabc eb51 9ebb 32aa 973b
000002c0: cf26 8dbc 692c 003c 4145 e03c 61a0 b3bc
000002d0: 6e5e 7ebc e4c0 913c 79d5 3b3c 15b8 bbbc
000002e0: 7561 5a3c efcb 533c d5b4 493c ad95 bbbc
000002f0: b826 6fbb 3c53 a43c f6f0 04bb f084 853b
00000300: e002 543c 6f5c 073c d95c 3cbb 60ec ab3b
00000310: 14ea c23b e544 383c 13cd 423c 259c a93c
00000320: 1736 043c 1e68 b6ba 131c d4bb 15dd fabc
00000330: 47f5 91bc 0308 82bb 07d9 09bc 0efc 033d
00000340: 062c b13b ecbe 21bc c67f 3ebc 5b46 b13a
00000350: 3064 efbc 1ab7 9a3c 8c7e 60bc e534 553c
00000360: 1d90 4b3b 27fb 993c a2af 0c3c 3fe8 1e3c
00000370: 8112 5dbc f92c 03bc b7de c8bc 4be0 17bc
00000380: 549c 36bd 535d 5fbc 5b4a efbc 0431 9e3c
00000390: b569 12bd b6ec 853c 2025 c9bc 811c 163d
000003a0: 9cee c8bc 98e3 273c 4bc5 ff3c e08a a93c
000003b0: 6842 96bc 71bc 01bd 2461 463c bc6a c5bc
000003c0: 595b 5c3d 8c24 fd3b 761b 8dbb fb03 efbc
000003d0: 21f9 fe3c 505d 273b 5858 bfbc 812c 9b3b
000003e0: bb7b 0ebc 900b e8bb f373 ac3c 35e0 36bc
000003f0: 41b3 8cbc 1ba8 0b3c a0fa 323d d00d c13a
0.0031378132 0.0035851677 -0.009886419 -0.030464565 -0.011881238 0.0037010838 0.008399426 0.015302356
-0.008877455 0.0063861106 0.004175547 0.01805638 0.034559097 -0.024149582 0.019112952 -0.023429321
0.014637104 -0.012052336 -0.02301631 -0.0089175375 -0.0134720085 0.00059546676 0.022746796 -0.014743277
-0.012720951 0.035527732 -0.023331303 -0.046308484 -0.033276968 0.0074095186 0.016323559 0.011560378
-0.0047670496 -0.002444377 -0.01082654 -0.018028673 0.027990537 0.029882178 -0.017726637 -0.016673053
0.016674586 0.013178466 -0.0059686475 -0.016147822 0.003910747 0.026493551 0.008758681 -0.02063749
-0.00640751 0.028146379 -0.020712119 -0.014824345 -0.008177829 0.018838404 0.031757653 -0.016210299
-0.02949669 -0.012813489 -0.005876407 -0.027220897 -0.012740044 0.007248156 0.01170188 0.008801164
0.009241706 0.008772746 -0.011348573 -0.0076471665 0.017696133 0.0053308234 0.0049777282 0.01695591
0.01234364 0.013928777 -0.0051341397 -0.018527068 -0.0075775264 -0.013301314 0.008229932 0.029061632
0.015337597 -0.029518446 -0.0025880423 0.049323663 0.0034910163 -0.03195007 -0.0151497 -0.011197207
-0.008985695 0.00073096046 -0.028775476 0.0006435107 -0.018659707 -0.01039999 -0.03386633 -0.041417122
0.00022359546 -0.030279867 -0.006492322 -0.0038003796 -0.029330391 -0.009941184 -0.015735557 -0.021250738
0.0021112994 -0.00620735 0.022080643 0.02767833 0.016936375 -0.0006664673 0.008504777 -0.0037984801
0.02791084 0.025388634 0.017480465 -0.0035719885 0.02008239 -0.019310385 -0.027014155 0.008841071
0.017404938 0.029206626 0.03254937 -0.01043932 0.0009849787 0.00360998 -0.013097079 0.0065260804
0.039360005 -0.00060486497 0.00396182 0.003783323 -0.014225619 -0.019266726 -0.028941633 -0.018636353
0.015018158 -0.032816324 -0.01069561 0.054194346 0.0055682156 0.017060224 -0.02064786 -0.0035845302
-0.013550646 -0.016074698 0.039965097 0.014691498 0.01259081 -0.035071865 0.022616709 -0.01446238
-0.008484702 0.012082216 -0.018989192 0.026157238 0.033521343 -0.036838613 -0.021338617 0.04187837
-0.024033073 0.005505633 0.023212861 0.027580453 0.0165766 0.0029115644 -0.007943987 0.0010229839
-0.024926722 -0.01921662 -0.03939367 0.026301602 -0.020236826 -0.026683798 -0.0048315427 0.004628443
-0.01723042 0.007823088 0.027376773 -0.02192706 -0.0155254435 0.017792173 0.01146447 -0.022914926
0.0133289 0.0129270395 0.01231118 -0.02289852 -0.0036491584 0.02005922 -0.0020285225 0.0040746853
0.012940139 0.008261784 -0.0028741865 0.005246684 0.0059483144 0.0112468945 0.011889714 0.020704338
0.008069537 -0.0013916527 -0.0064730733 -0.030622998 -0.017817153 -0.00396824 -0.00841356 0.0322228
0.0054068593 -0.0098721795 -0.011627143 0.0013524996 -0.029222578 0.018886138 -0.013702046 0.013013099
0.003106124 0.018796517 0.008586796 0.0096989265 -0.013493181 -0.008006328 -0.024520261 -0.009269784
-0.04458268 -0.01363309 -0.02921026 0.019310482 -0.03574534 0.016348224 -0.024553835 0.036648277
-0.02452784 0.010247134 0.031222006 0.020696104 -0.018342212 -0.031673852 0.012108121 -0.024098746
0.053798053 0.007725304 -0.004306252 -0.029176703 0.031124653 0.0025537796 -0.023357555 0.00473553
-0.008696492 -0.0070814565 0.021051383 -0.011161854 -0.017175319 0.008523966 0.043696046 0.0014728848

bert.encoder.layer.0.attention.self.query.bias f4 [32]
00000000: 0000 0000 0000 0000 0000 0000 0000 0000
00000010: 0000 0000 0000 0000 0000 0000 0000 0000
00000020: 0000 0000 0000 0000 0000 0000 0000 0000
00000030: 0000 0000 0000 0000 0000 0000 0000 0000
00000040: 0000 0000 0000 0000 0000 0000 0000 0000
00000050: 0000 0000 0000 0000 0000 0000 0000 0000
00000060: 0000 0000 0000 0000 0000 0000 0000 0000
00000070: 0000 0000 0000 0000 0000 0000 0000 0000
0.0 0.0 0.0 0.0 0.0 0.0 0.0 0.0
0.0 0.0 0.0 0.0 0.0 0.0 0.0 0.0
0.0 0.0 0.0 0.0 0.0 0.0 0.0 0.0
0.0 0.0 0.0 0.0 0.0 0.0 0.0 0.0

bert.encoder.layer.0.attention.self.key.weight f4 [32, 32]
00000000: 02e4 b6bc 73d8 463c 700f a1bc 2794 113c
00000010: 6027 9d3b 7b4f 893c 2c00 6abb f506 d53a
00000020: 3902 e33b a35d 77bc 6ade c63c a9ad 8fbb
00000030: c4df c23c d8a5 fe3a f9a7 f53b 4566 033c
00000040: 2b46 003c 9d5f 8c3c b266 543b 85da e5ba
00000050: ecb0 d4bc a01a 663c 3b23 1fbb 248b 053c
00000060: ec5c 6f3d e8de 873c 59b0 00bd 3bea 973b
00000070: 7662 163d b58b 903c 948a 2f39 601a cabb
00000080: 4532 47bc 87c6 213d 6c2f e13b 9d5d 35ba
00000090: 4329 71bc 29e2 bb3c 7fb1 90bc d79a c6bb
000000a0: 26a2 a139 d273 8fbc d9df 1a3c 7b89 3e3b
000000b0: 6d13 01bc fb0c fd3b c115 6dbc d674 0dbd
000000c0: a766 4a3c 38e4 4cbd 1284 cebc 5481 10bc
000000d0: bfb9 953c 99f3 3d3c 9cc0 a4bc 242d 38ba
000000e0: 206b 40bb dbb5 27bd 70db 18bb 59ec 6cbc
000000f0: b36e 4e3c cdd4 9a3c fda2 adbc 92e1 06bd
00000100: f3db 6d3c 55ec dc3a 2e58 8dbc e4cd 953c
00000110: d0f1 48bc f572 9cbc c808 07bc 2c8e d5bb
00000120: e4bf e13b c3e0 153d b2c5 ddbc 60a5 043d
00000130: 4bed 15bb 01c4 adbc 3a80 21bd 19b8 a5bb
00000140: d0a1 7b3c 627a 9c3b fd98 01bd 1c67 bbbc
00000150: 6761 823b 0a3c b93c cf2e 4dbb f811 883c
00000160: 5b0c 47bd d056 f0bb ce84 98bc 4541 44ba
00000170: cb56 e3bb e9fc 113b f72e 58bc 3baa 463c
00000180: f399 62ba 207c 933c bc4b babc 947b 5f3c
00000190: 9219 733b 06c2 983c 0c43 dbbc aee9 8c3b
000001a0: b0ea c739 47a5 13bb 7c43 7fbc 53d5 923c
000001b0: 41bb e53b 183c 4b3c e795 b8bc f3f9 39bc
000001c0: 09eb 263c 6d44 83bb 8d4b caba e2c4 55bb
000001d0: 9c46 15bd d6d1 af3c 36b6 21ba 2b56 ecbb
000001e0: 0b3f 10bd 4a6d 26bd 8fdc 863b 68ce 92bb
000001f0: a1a6 b3bc 1061 803c 42f2 b8bb 3467 e23c
00000200: 32bf 103d 34ee ba36 351d 3dbc 0285 7c3c
00000210: df47 88ba 98e1 28bc 078f df3b 6ebb 29bc
00000220: 8d54 b93c eb01 0bbc 944a a93c c283 db3c
00000230: 1c5c 2cbc 41fc 42bc 998c 7dbc 1b03 5dbc
00000240: 39ae 30bd 49f2 d7bc be1d 1e3d 4e8d c3bc
00000250: 40a3 d9bc 9efb bcbc 5341 853c d41e 1abc
00000260: ca9f f6ba 4193 723b 135e 2c3c f96d 903c
00000270: 6181 5b3d 3b7e fc3c 0650 d73c 201e a73a
00000280: c71e a1bb e6e9 5cbc 2f8f 82bc 157a 3abb
00000290: 0ebb e63b 4bf7 0bbb a654 543c 9ee5 b83c
000002a0: fb1f 593c 80e6 d23c defe a83c 59a6 bdba
000002b0: 263d 9e3c a4ee b93c 222c ac3c 97c5 1c3c
000002c0: a2ec ad3c 2f4f b4bb a413 d03a e1d4 cbba
000002d0: 3378 edbc 4f54 8dbc 9439 993c 990a 1f3d
000002e0: 6a9a 6b3c 37cb 8abc f56c dd3a e18e d93b
000002f0: 57aa 823b fb52 75bd 82a2 75bc 8c26 71bc
00000300: a7d2 a4bc 5344 57bc 926f 2cbc 46a6 c93c
00000310: ce6f f13c 99bd debc c50f 1abc 52d8 dc3c
00000320: 968d 81bc a577 b63c b76e 6d3d dce9 853c
00000330: b7ed 81bc 0f58 853b a144 5bbb ea11 43bd
00000340: e144 f13b cac3 263c 85ec 24bc c248 333c
00000350: efe7 263b fd45 b33c 2e05 94bc 629b 00bc
00000360: 3dbf 8f3c b36a 683c cdcd 433c 35c2 393d
00000370: 3d15 68bc 47fb 293b 7079 583b 6c69 8a3c
00000380: 29dc 783c bd9b 183c 412d 533c 5637 30bc
00000390: 34d4 093c 7c85 973c dde4 9c3c b051 40bd
000003a0: eb9e 7c3c aa26 48bd 149d 1dbc 49a6 f73c
000003b0: a2bd a7bc 4bf9 98bb ac4a 653b 89bd 483c
000003c0: d20c 1cbd a4ee a63c 81f0 02b6 eba3 b73c
000003d0: f662 a9bb 2c7a 61bc 1bf3 ac3c 4cb3 e4bb
000003e0: cd2e 313c c7ee e13c 2545 753b 3c59 24bc
000003f0: a62a 123d 16e8 28bc a585 daba 3c13 063c
-0.02232552 0.012136566 -0.019660681 0.00888542 0.0047959536 0.016761532 -0.003570567 0.0016252684
0.006927755 -0.015098008 0.024275977 -0.0043847156 0.02378834 0.0019428087 0.0074968305 0.008019988
0.007829229 0.017135436 0.0032409844 -0.0017536437 -0.02596327 0.014044434 -0.0024282474 0.0081508495
0.058438227 0.016585782 -0.03141818 0.0046360767 0.036714993 0.017644743 0.00016740925 -0.006167695
-0.012157981 0.03949597 0.006872108 -0.00069185515 -0.01471931 0.02293499 -0.017662762 -0.006060939
0.00030829123 -0.017511282 0.0094527835 0.0029073644 -0.007878167 0.0077224947 -0.014470519 -0.03453525
0.012353576 -0.050022334 -0.02520946 -0.008819897 0.018277047 0.011593723 -0.020111375 -0.00070257694
-0.0029360726 -0.040944915 -0.0023324154 -0.014460647 0.012599635 0.0189003 -0.021195883 -0.032929964
0.014517772 0.00168551 -0.017253961 0.018286653 -0.012264684 -0.019097785 -0.00824184 -0.0065171923
0.00688933 0.036591303 -0.027071808 0.032384276 -0.0022877033 -0.021211626 -0.039428927 -0.0050573465
0.015358403 0.0047753314 -0.03164004 -0.022876315 0.0039788964 0.022611637 -0.0031308418 0.01661013
-0.048595767 -0.0073345676 -0.018618014 -0.00074865326 -0.0069378368 0.002227599 -0.013194791 0.012125547
-0.0008644156 0.018003523 -0.022741191 0.013640303 0.0037094099 0.018647205 -0.026765369 0.0043003177
0.00038131094 -0.0022528933 -0.015580054 0.017923987 0.007010848 0.012404464 -0.022532417 -0.011351096
0.010187873 -0.0040059597 -0.0015433893 -0.0032618572 -0.03644429 0.021462362 -0.0006168814 -0.0072124205
-0.035216372 -0.04063157 0.004115648 -0.004480172 -0.02193004 0.015671283 -0.0056441138 0.027637102
0.035338588 5.5709625e-06 -0.011542608 0.015412571 -0.0010397396 -0.010307692 0.00682247 -0.010359628
0.022623325 -0.008484344 0.020665444 0.026796225 -0.010520007 -0.011900962 -0.015475416 -0.01348951
-0.0431349 -0.026360648 0.038602583 -0.02387109 -0.026567101 -0.0230692 0.0162665 -0.009406764
-0.0018815931 0.003701404 0.010520476 0.017630564 0.053590182 0.03082191 0.026283275 0.0012750067
-0.004916999 -0.0134835 -0.015937416 -0.0028454114 0.0070413416 -0.0021357115 0.012959635 0.022570428
0.013252254 0.025744677 0.020629343 -0.0014469131 0.019316267 0.0226968 0.021017138 0.009568593
0.021231 -0.0055026035 0.0015874994 -0.0015551114 -0.02898798 -0.017252116 0.018704213 0.038828466
0.014380077 -0.016942604 0.0016893434 0.006639347 0.0039875912 -0.05989359 -0.014992358 -0.014718663
-0.020119978 -0.013138848 -0.010524647 0.024615418 0.029472258 -0.027190017 -0.009403174 0.026958618
-0.015814584 0.022273848 0.057966914 0.016346864 -0.015860422 0.0040693353 -0.0033457654 -0.047624506
0.0073629473 0.010178516 -0.010066156 0.01094264 0.0025467833 0.021883959 -0.018068876 -0.007849546
0.017547244 0.014185595 0.011950922 0.045351226 -0.01416522 0.0025937126 0.0033031367 0.016895972
0.015189209 0.009314475 0.012889207 -0.010755381 0.00841241 0.018496267 0.0191521 -0.046952903
0.015418748 -0.048864998 -0.00961997 0.030230658 -0.020476166 -0.00466839 0.0034987135 0.01225222
-0.038098164 0.020377465 -1.9511501e-06 0.02241703 -0.0051692678 -0.013762038 0.021112015 -0.0069793817
0.010814381 0.027579678 0.0037425247 -0.010031041 0.035685204 -0.01030924 -0.0016671909 0.008183297

bert.encoder.layer.0.attention.self.key.bias f4 [32]
00000000: 0000 0000 0000 0000 0000 0000 0000 0000
00000010: 0000 0000 0000 0000 0000 0000 0000 0000
00000020: 0000 0000 0000 0000 0000 0000 0000 0000
00000030: 0000 0000 0000 0000 0000 0000 0000 0000
00000040: 0000 0000 0000 0000 0000 0000 0000 0000
00000050: 0000 0000 0000 0000 0000 0000 0000 0000
00000060: 0000 0000 0000 0000 0000 0000 0000 0000
00000070: 0000 0000 0000 0000 0000 0000 0000 0000
0.0 0.0 0.0 0.0 0.0 0.0 0.0 0.0
0.0 0.0 0.0 0.0 0.0 0.0 0.0 0.0
0.0 0.0 0.0 0.0 0.0 0.0 0.0 0.0
0.0 0.0 0.0 0.0 0.0 0.0 0.0 0.0

bert.encoder.layer.0.attention.self.value.weight f4 [32, 32]
00000000: 09db e0ba 72f0 26bc 6ade 79bb c201 a0bc
00000010: 6271 fdbc 74ae 4a3c c487 14bc eee7 04bc
00000020: 1213 67bc ed9a a13b 67d6 d63c 2222 ecbb
00000030: db32 48bc 0912 88bc dc05 533b 0c05 5d3c
00000040: 87a1 fabc f31a 93bc 7fef 863a 31ad 0ebc
00000050: 18b7 753d e236 f4bb 9de9 013d 6cf3 52bc
00000060: 05b6 813b fd43 88bc c7ce 1f3c 184a 9cbc
00000070: e28b 813a 3368 f83a a0f9 5dbb c47b d0bc
00000080: b865 6e3c fabe 20bc 14f9 483c 4752 2f3c
00000090: e078 193d 7a30 8d3b d8e7 aebc 3726 7bbc
000000a0: 89a5 79bc f9a8 51b8 0bd9 c7bc f32b 39bc
000000b0: a79a 93bb f987 c5bb c4a3 d3ba af4d 8a3b
000000c0: 9b13 ce3c 6a39 b5bc 12cc 1b3c c73e 023b
000000d0: bb5c 763c b713 9c3a 0b8c 7f3b b3b6 613c
000000e0: 29f5 9d39 f2a6 dabb db03 173c cefb ee3c
000000f0: e655 38bc 348f a03c 8b22 6cbb 09b4 83bb
00000100: 780c e43c 8780 9fb9 397a e23c 74d5 1b3d
00000110: 6518 0d3c 9dc5 f8bc 79d3 ab3b c9fd 253d
00000120: cdef abbc 6d58 0bbc e9f5 e1bc 427e b6bc
00000130: 05c4 02bc 5e86 f1bc 8baf 9339 b29e 333d
00000140: 826b eb3c fb89 8bbc 0cc9 673b 5e66 03bd
00000150: 6260 85bc 1fc5 8e3c 565e 8c3c 4281 adbc
00000160: 3d2c 0ebd cf8e 95bc 64df 2bbb eb9f 84bc
00000170: 1c48 6abb 2d67 023c 6449 363c 76eb 053c
00000180: 3da1 93bc 7f69 1bbd 8c5b 093b ef12 94bc
00000190: 7bf7 97bc fcda 3b3c 6f71 d1bb 52dd 33bd
000001a0: 45c8 dc3c f2e2 e9bc 8526 573c 82b7 e63a
000001b0: 31ba 17bb 1bfd e1bc 3686 193d f202 30bd
000001c0: 9422 f4bc 0767 a13c 2a1e dd3c 5f24 0c3c
000001d0: 4c4b 51ba 47cd 41bc 63b2 68bc afc4 023c
000001e0: 02c5 9bbc 091f 8fbc 8fcd 8e3c 7094 9f3c
000001f0: ab54 bbbc b041 933a f8a5 14bc b6c4 a6bc
00000200: 09dc 7739 697a ca3b 0d04 463c d3da 963c
00000210: 9774 063b f88d 323d 06ce 553c 0228 98bc
00000220: 5e32 11bd b9de 05bb b793 503b a7e9 81bc
00000230: 7732 a23c 7258 74bc e47d c13c 43bb 913c
00000240: 60b2 593c 3861 e6bb ad83 333c f4a0 d0bb
00000250: 048f afbb 3e10 9b3c 44f7 41bc 84fe 363d
00000260: c7b8 2d39 f7c6 80bc 5be5 db3c 7bd6 2d3c
00000270: 0ace 1e3b 4b13 61bd dca2 4b3c 1708 d43c
00000280: af17 8bbc ec6c cfbc 0661 813c b977 2e3c
00000290: 8ff6 59bc f22d daba 0b82 55bb ea97 b73c
000002a0: 86fe 2c3d bb00 aeba 4b52 6dbc 5ce2 3bbc
000002b0: b091 a13b 869a 44bd 865b 1b3d b41c 9c3c
000002c0: 1fbe 9d3c d3ea e6bc 19a3 50bc 4bf0 82bb
000002d0: bb03 76bc 0680 a3bb 65f1 d6bc af9b ea3b
000002e0: 81df c33c bd16 543c 6e60 67bc 10e4 3f3c
000002f0: 721d 2d3c 7988 5dbb e384 78bc 526a c6bc
00000300: 0e90 863b 2423 5cbc 3cb3 dc3b fe9a 9c3c
00000310: e8a2 8c3c 33e1 7dbd 6bc6 d33c f39f afbc
00000320: 1edc 063d 0abb dd3c 4f85 273c 866a f5ba
00000330: 04bb bf3b 7013 313c 8b3f 713c 3c6b 9ebc
00000340: 3790 e5bc b88f 5d3b 2607 003d 78df f3bc
00000350: d048 983c a976 f03c 70bd 743b 044d 1cbc
00000360: 4ee4 f5bb 3d03 08bd 0ee3 fcbc 8b34 413c
00000370: d9b1 debc c120 51bc 5b4d 5c3c 8a0d 6cbb
00000380: bf37 1f3c fbcd 163c fcb2 de3b 5cb5 8dbc
00000390: e911 efbc 2d13 a73c 9002 5e3c b1bf 94bc
000003a0: 2751 333b 1b77 8d3c 8cc9 00bc 1255 e9bc
000003b0: 4091 f1bc e46f ccbc 00f3 ff3b 550b 733c
000003c0: ca7a ae3b 62a8 febb 6121 cf3b 32be c93a
000003d0: 9dcb 9c3c 4066 1ebd e974 44bc aec2 c7ba
000003e0: 1c3b 4f3c 8ae4 f93c 7548 94bb 0989 afbb
000003f0: 320e ee3c 898e 4fbb 0a3d c5bc b121 1bba
-0.0017155121 -0.010189163 -0.0038126954 -0.019532088 -0.030937854 0.012370694 -0.009065572 -0.008111937
-0.014103668 0.0049317987 0.026225282 -0.0072062174 -0.012219156 -0.016610162 0.0032199537 0.013489973
-0.0305946 -0.017957186 0.0010294764 -0.008708284 0.059989065 -0.0074528316 0.03171693 -0.012875419
0.003958466 -0.016633982 0.009753889 -0.0190783 0.0009883607 0.0018951952 -0.0033870712 -0.025449641
0.014550619 -0.009811157 0.012266416 0.010700769 0.03746879 0.0043087574 -0.021350786 -0.015328935
-0.015237221 -4.998685e-05 -0.024395486 -0.011301982 -0.00450452 -0.006028172 -0.0016146828 0.0042206864
0.025155833 -0.022122104 0.009509103 0.0019873844 0.015036757 0.0011907731 0.0038993384 0.013776469
0.00030128032 -0.0066727335 0.009217228 0.029172804 -0.0112509485 0.019599535 -0.0036031331 -0.0040192646
0.027837977 -0.00030422604 0.02764617 0.03804536 0.008611773 -0.030367667 0.0052437154 0.04052523
-0.02098837 -0.008504969 -0.02758308 -0.022277001 -0.007981305 -0.029483017 0.00028168815 0.043852516
0.028737787 -0.017033568 0.0035367636 -0.032080047 -0.01628131 0.017427979 0.017134827 -0.021179799
-0.034710158 -0.018256573 -0.002622568 -0.016189536 -0.0035748547 0.007959169 0.011125896 0.008173814
-0.01802122 -0.037942406 0.0020959107 -0.018075434 -0.018550625 0.011465784 -0.006391696 -0.04391224
0.026950965 -0.028550599 0.013131742 0.0017602297 -0.002315175 -0.02758651 0.03748151 -0.04297156
-0.029801644 0.019702448 0.026991922 0.008553593 -0.00079839374 -0.011828727 -0.014202687 0.007981463
-0.01901484 -0.017470853 0.017432002 0.01947996 -0.022867521 0.0011234786 -0.009072773 -0.020357471
0.00023637725 0.006179143 0.012085927 0.01841489 0.002051627 0.043592423 0.013049608 -0.018573765
-0.035448425 -0.0020426943 0.0031826326 -0.015858484 0.019799454 -0.014913665 0.0236196 0.017789489
0.013287157 -0.0070306323 0.010956687 -0.0063668434 -0.005357625 0.018928643 -0.011838738 0.04467632
0.000165674 -0.015719874 0.026842764 0.010610218 0.0024231696 -0.05495004 0.012428965 0.025882764
-0.016979067 -0.025320493 0.015793335 0.010648661 -0.013303413 -0.0016645773 -0.0032578732 0.022411305
0.04223492 -0.0013275364 -0.014484952 -0.0114675425 0.0049306974 -0.047998928 0.03792908 0.019056655
0.019255696 -0.028188145 -0.012734198 -0.0039959303 -0.015015538 -0.004989627 -0.026238153 0.007159672
0.023910286 0.012944874 -0.014122112 0.011712089 0.010566102 -0.0033803268 -0.015168401 -0.02422062
0.004106528 -0.013436113 0.0067352336 0.019116875 0.017167524 -0.061982345 0.025851449 -0.021438574
0.032924764 0.027066726 0.010224654 -0.0018723763 0.0058511514 0.010807857 0.0147246225 -0.019338243
-0.028022869 0.0033807587 0.031256817 -0.029769644 0.018589407 0.029353457 0.003734436 -0.009539846
-0.0075040227 -0.033206213 -0.030869987 0.011792312 -0.027184414 -0.012764157 0.013446177 -0.0036018812
0.009717881 0.009204383 0.006796239 -0.017298393 -0.029183345 0.020394886 0.013550416 -0.018157812
0.0027361603 0.017268708 -0.0078605525 -0.028482947 -0.029488206 -0.024955697 0.0078109503 0.014834245
0.005324696 -0.0077715376 0.0063211177 0.0015391766 0.01914006 -0.038671732 -0.011990764 -0.0015240514
0.01264837 0.030504484 -0.004525239 -0.005356912 0.029059503 -0.003167065 -0.024076957 -0.0005917801

bert.encoder.layer.0.attention.self.value.bias f4 [32]
00000000: 0000 0000 0000 0000 0000 0000 0000 0000
00000010: 0000 0000 0000 0000 0000 0000 0000 0000
00000020: 0000 0000 0000 0000 0000 0000 0000 0000
00000030: 0000 0000 0000 0000 0000 0000 0000 0000
00000040: 0000 0000 0000 0000 0000 0000 0000 0000
00000050: 0000 0000 0000 0000 0000 0000 0000 0000
00000060: 0000 0000 0000 0000 0000 0000 0000 0000
00000070: 0000 0000 0000 0000 0000 0000 0000 0000
0.0 0.0 0.0 0.0 0.0 0.0 0.0 0.0
0.0 0.0 0.0 0.0 0.0 0.0 0.0 0.0
0.0 0.0 0.0 0.0 0.0 0.0 0.0 0.0
0.0 0.0 0.0 0.0 0.0 0.0 0.0 0.0

bert.encoder.layer.0.attention.output.dense.weight f4 [32, 32]
00000000: c75f dfbc 3753 42bc 6ba3 a3bc 8ac1 b8bc
00000010: 9611 08bd be8d db3b 6057 3cbd 4bf5 083c
00000020: 32a2 7ebc dcab 48bc cbea e3bb 7b65 5d3c
00000030: 559d ed3c 799d 113d 3700 07bd 64f9 be3a
00000040: 7571 053d 62a7 e2bc c541 b3bc 26e8 73bc
00000050: f4f2 3abc d77e 3abc a9fb 0f3c 6d69 103c
00000060: fcdc 5e3d 55b6 3e3c e765 353b 5f47 123d
00000070: f3ac ca3b e48c 85bc f444 983c fc0b ae3c
00000080: 20cf a9bc 3b77 453c 2ad8 d93c b984 98bc
00000090: 4126 21bb 1e29 e9bc 2bab bebb 0e0c fcbc
000000a0: 1471 a73c ea10 01bd 3677 2ebc 05ae 25bc
000000b0: 7496 ef3c 69d5 c43c f6e8 8f3b ad82 293c
000000c0: 259e dcbc 6b89 e6bb d5e4 a13b 5c76 f23a
000000d0: 650e 21bc fd62 1f3c 40ac caba eacd 983b
000000e0: 2987 693c 78c6 293d 2f04 ba3a 7eb1 313d
000000f0: b38e 3b3c 8f05 b83b c5db 42ba f070 4cbc
00000100: d831 283c d9c9 053d 4b36 df3a 9068 fdbb
00000110: bdeb 763c b733 de3c 6745 07bd 2e04 eebb
00000120: 0b12 f3bc 572b 093d a4f8 46bc fc91 b33b
00000130: f716 373c dcd9 bf3b 44e1 e43b 2b4b e43b
00000140: b053 f83b a0d2 9dbc 4873 81ba 78ad 07bd
00000150: a75a a2bc 658f 053d 3509 35bc b7b0 4c3d
00000160: 3653 283c 676c 1fbd 61fe dcbb 9bf3 cebc
00000170: 74e6 073d c45c a83c 6a0e a53b def8 bb3c
00000180: 9a71 1fbd b4f7 113b 74fd 84bd d96e 00bd
00000190: 57c3 66bc 1d39 353c 9d6b c6b9 e19f 0f3d
000001a0: c087 933c 79c8 343c c746 06bc c79a 933b
000001b0: 6fe0 8fbc 183f e83c 9e40 843c 8a84 b43c
000001c0: fe89 523c cb63 e6ba 8633 d8bc 2311 85ba
000001d0: 869e 4c3b a21d 0ebc b03a f73b 991d 613b
000001e0: 9863 303c 641f 873c 6e51 a93b f41e 4dbd
000001f0: 8eed 913c 55fb 56bb 17c3 2ebc 8ce0 88bc
00000200: f2d5 303c 6729 fabb 2ff1 a53b 80e6 2e3c
00000210: 53bf aabc 98b9 cd3c 01b6 c9bc 6cfb 083d
00000220: e0d4 9e3c c914 86bc 2dc6 943c 01a6 8c3c
00000230: 15dc 713c fc4e f93a b45c 51bc bc35 e4bb
00000240: e39f 77ba 20fc e73b 05a2 2f3d 98aa 9dbc
00000250: 5b47 d7ba 55e3 f639 3d2f 5ebd f8ca b03c
00000260: 77fa abbc e4f5 153c 0b84 1dbb a60b 1e3d
00000270: a9d0 363d 81e3 333b 1748 54bc 1720 1cbc
00000280: 4945 c5ba 445d e43b 9792 79b9 6d81 ab3c
00000290: d99a 7d3b 6683 80bb 6dbd 003d 771b 473c
000002a0: aa33 d23a 06cc c5bb 8cc4 ff3c 3773 433c
000002b0: 5eb3 57bc 52b3 873b 6757 973c 3c0a 543c
000002c0: c004 d53b c65f b53c 6785 9bbc 05cf 29bc
000002d0: 4f16 bb3b 2ebe 83bc 8969 e7bc 7949 33bc
000002e0: 759e 03bc 6177 b0bc 14f6 2f3c e9b0 75bc
000002f0: d4b0 ea3c 699a c33c a6f9 aabc 601b c4ba
00000300: a99a a93c 1e12 a93b 30e1 58bc b7d1 87bb
00000310: d484 963c 82e9 ac3a e189 9ebc fe8e 9b3c
00000320: a284 d3bb b8eb 39bd 1024 cf3c 3659 22bd
00000330: 26c5 e3bb da6f 9d3b 8b41 f1bc c23c 15bc
00000340: 4ab2 9abc b449 c0bc b198 23bc b68b 01bc
00000350: fb30 8bbb c2b9 b43a 12d4 923c 0b2f 6a3c
00000360: b47c 2a3d 4f99 81bb 518f 22bd 1921 a0bc
00000370: e2ae a93c f337 4a3b aac9 1aba f30d 0cba
00000380: 0204 2e3d be14 4b3a 144b b23c 2d50 19ba
00000390: 86d2 823c be5d 5c3c d97d 333a e2a4 dd3b
000003a0: bdd2 aa3b 3572 bd3b 5440 7b3c f4ff 02bc
000003b0: a934 acbb 6982 f43c 40e6 d2bc 39b8 823b
000003c0: 9d5d 263a 8ae0 ddbc 3634 82ba 6bb2 6abb
000003d0: 8a32 373c 6b30 f33c 3d78 09bd 5d01 58bc
000003e0: 012d 18bd af76 95bd 4e68 db3b 595b a03b
000003f0: 7dc4 4ebc f9eb cd3a 970b a4bc e0aa 953c
-0.02726735 -0.01186066 -0.019975385 -0.022553224 -0.033219896 0.0067002466 -0.045981765 0.008359264
-0.0155416 -0.012248006 -0.0069554797 0.013512964 0.029005686 0.03555057 -0.03295919 0.0014570174
0.032578904 -0.027667705 -0.021881947 -0.0148868915 -0.011410464 -0.01138278 0.008788028 0.008814198
0.054409966 0.011640151 0.0027679147 0.035712596 0.006185168 -0.016302533 0.018587567 0.021245949
-0.020728648 0.012052353 0.026592333 -0.018617975 -0.0024589451 -0.028461989 -0.0058187447 -0.030767467
0.020439662 -0.03151027 -0.010648539 -0.01011229 0.029246546 0.024027543 0.004391785 0.010346097
-0.026930878 -0.0070354245 0.004940609 0.0018498409 -0.009830092 0.0097281905 -0.0015462711 0.0046632187
0.014253416 0.04144904 0.0014191921 0.04338216 0.011447596 0.005615897 -0.0007433261 -0.012478098
0.01026579 0.0326632 0.001702973 -0.007733412 0.015070853 0.027124269 -0.03302517 -0.007263682
-0.02967169 0.033488598 -0.0121442415 0.005480049 0.011174909 0.0058548283 0.0069848616 0.0069669685
0.0075783357 -0.019265473 -0.0009876275 -0.033124417 -0.019818617 0.032607455 -0.011049558 0.049973216
0.010273745 -0.03892174 -0.0067441915 -0.025262645 0.03317876 0.020552047 0.0050371187 0.022945818
-0.0389267 0.0022272887 -0.06493655 -0.031355713 -0.014084659 0.01106098 -0.0003784568 0.03506458
0.018009067 0.0110341245 -0.008195586 0.004504535 -0.017563073 0.028350398 0.016144093 0.022035856
0.012850283 -0.0017577348 -0.026391756 -0.0010152202 0.0031222417 -0.008674057 0.007544838 0.0034349917
0.0107659325 0.01649446 0.005167178 -0.050078347 0.01781347 -0.0032803614 -0.01066663 -0.016708635
0.010793196 -0.00763433 0.0050641517 0.010675073 -0.020843184 0.025112912 -0.024622919 0.0334429
0.019388616 -0.016367333 0.018160904 0.017169 0.014761944 0.0019020732 -0.01277845 -0.0069644134
-0.0009446127 0.007079616 0.042879123 -0.019246385 -0.0016424464 0.00047090152 -0.05424427 0.021581158
-0.020993454 0.009152863 -0.0024035003 0.038585328 0.044632588 0.0027448835 -0.012956641 -0.009529135
-0.0015050556 0.006969126 -0.000238011 0.020935738 0.0038697033 -0.003921914 0.03143065 0.012152544
0.0016037126 -0.0060362844 0.03122165 0.011929325 -0.013165323 0.0041412497 0.018474294 0.012941893
0.0065008104 0.022140395 -0.01898451 -0.010364299 0.0057094465 -0.016081896 -0.028248565 -0.01094281
-0.008033385 -0.0215413 0.010739822 -0.014995792 0.028648771 0.02387734 -0.020870995 -0.0014961772
0.02070363 0.0051596304 -0.013237283 -0.004144873 0.018373884 0.0013192149 -0.019352855 0.018989082
-0.00645502 -0.045390815 0.02528575 -0.03963586 -0.006950992 0.0048045935 -0.029450199 -0.009108724
-0.018883843 -0.023472644 -0.009985135 -0.007906845 -0.0042477823 0.001378827 0.017923389 0.0142934425
0.041622832 -0.0039550434 -0.03968746 -0.019547032 0.020713273 0.0030856102 -0.0005904684 -0.0005342655
0.04248429 0.0007746926 0.021764316 -0.0005848434 0.015969526 0.013450084 0.0006847061 0.0067640403
0.0052131102 0.005781437 0.015335161 -0.007995594 -0.005255301 0.02984734 -0.025744557 0.003989246
0.0006346347 -0.027084608 -0.0009933773 -0.0035811912 0.011181483 0.029686173 -0.033561934 -0.013183919
-0.037152294 -0.07298028 0.0066957837 0.004893702 -0.012620089 0.0015710584 -0.020025058 0.018269956

bert.encoder.layer.0.attention.output.dense.bias f4 [32]
00000000: 0000 0000 0000 0000 0000 0000 0000 0000
00000010: 0000 0000 0000 0000 0000 0000 0000 0000
00000020: 0000 0000 0000 0000 0000 0000 0000 0000
00000030: 0000 0000 0000 0000 0000 0000 0000 0000
00000040: 0000 0000 0000 0000 0000 0000 0000 0000
00000050: 0000 0000 0000 0000 0000 0000 0000 0000
00000060: 0000 0000 0000 0000 0000 0000 0000 0000
00000070: 0000 0000 0000 0000 0000 0000 0000 0000
0.0 0.0 0.0 0.0 0.0 0.0 0.0 0.0
0.0 0.0 0.0 0.0 0.0 0.0 0.0 0.0
0.0 0.0 0.0 0.0 0.0 0.0 0.0 0.0
0.0 0.0 0.0 0.0 0.0 0.0 0.0 0.0

bert.encoder.layer.0.attention.output.LayerNorm.weight f4 [32]
00000000: 0000 803f 0000 803f 0000 803f 0000 803f
00000010: 0000 803f 0000 803f 0000 803f 0000 803f
00000020: 0000 803f 0000 803f 0000 803f 0000 803f
00000030: 0000 803f 0000 803f 0000 803f 0000 803f
00000040: 0000 803f 0000 803f 0000 803f 0000 803f
00000050: 0000 803f 0000 803f 0000 803f 0000 803f
00000060: 0000 803f 0000 803f 0000 803f 0000 803f
00000070: 0000 803f 0000 803f 0000 803f 0000 803f
1.0 1.0 1.0 1.0 1.0 1.0 1.0 1.0
1.0 1.0 1.0 1.0 1.0 1.0 1.0 1.0
1.0 1.0 1.0 1.0 1.0 1.0 1.0 1.0
1.0 1.0 1.0 1.0 1.0 1.0 1.0 1.0

bert.encoder.layer.0.attention.output.LayerNorm.bias f4 [32]
00000000: 0000 0000 0000 0000 0000 0000 0000 0000
00000010: 0000 0000 0000 0000 0000 0000 0000 0000
00000020: 0000 0000 0000 0000 0000 0000 0000 0000
00000030: 0000 0000 0000 0000 0000 0000 0000 0000
00000040: 0000 0000 0000 0000 0000 0000 0000 0000
00000050: 0000 0000 0000 0000 0000 0000 0000 0000
00000060: 0000 0000 0000 0000 0000 0000 0000 0000
00000070: 0000 0000 0000 0000 0000 0000 0000 0000
0.0 0.0 0.0 0.0 0.0 0.0 0.0 0.0
0.0 0.0 0.0 0.0 0.0 0.0 0.0 0.0
0.0 0.0 0.0 0.0 0.0 0.0 0.0 0.0
0.0 0.0 0.0 0.0 0.0 0.0 0.0 0.0
